…
\f0\fs24 \cf0 \
\pard\tx560\tx1120\tx1680\tx2240\tx2800\tx3360\tx3920\tx4480\tx5040\tx5600\tx6160\tx6720\pardirnatural\partightenfactor0

\f1\b\fs36 \cf2 \cb3 \CocoaLigature0 ===>> Added dropouts and eliminating data with steering angle less than or equal to 0.3\
ubuntu@ip-172-31-46-176
\f2\b0 \cf4 :
\f1\b \cf5 ~/code
\f2\b0 \cf4 $ python model.py \
Using TensorFlow backend.\
_________________________________________________________________\
Layer (type)                 Output Shape              Param #   \
=================================================================\
cropping2d_1 (Cropping2D)    (None, 70, 220, 3)        0         \
_________________________________________________________________\
conv2d_1 (Conv2D)            (None, 35, 110, 24)       1824      \
_________________________________________________________________\
activation_1 (Activation)    (None, 35, 110, 24)       0         \
_________________________________________________________________\
max_pooling2d_1 (MaxPooling2 (None, 34, 109, 24)       0         \
_________________________________________________________________\
conv2d_2 (Conv2D)            (None, 17, 55, 36)        21636     \
_________________________________________________________________\
activation_2 (Activation)    (None, 17, 55, 36)        0         \
_________________________________________________________________\
max_pooling2d_2 (MaxPooling2 (None, 16, 54, 36)        0         \
_________________________________________________________________\
conv2d_3 (Conv2D)            (None, 8, 27, 48)         43248     \
_________________________________________________________________\
activation_3 (Activation)    (None, 8, 27, 48)         0         \
_________________________________________________________________\
max_pooling2d_3 (MaxPooling2 (None, 7, 26, 48)         0         \
_________________________________________________________________\
conv2d_4 (Conv2D)            (None, 7, 26, 64)         27712     \
_________________________________________________________________\
activation_4 (Activation)    (None, 7, 26, 64)         0         \
_________________________________________________________________\
max_pooling2d_4 (MaxPooling2 (None, 6, 25, 64)         0         \
_________________________________________________________________\
conv2d_5 (Conv2D)            (None, 6, 25, 64)         36928     \
_________________________________________________________________\
activation_5 (Activation)    (None, 6, 25, 64)         0         \
_________________________________________________________________\
max_pooling2d_5 (MaxPooling2 (None, 5, 24, 64)         0         \
_________________________________________________________________\
flatten_1 (Flatten)          (None, 7680)              0         \
_________________________________________________________________\
dropout_1 (Dropout)          (None, 7680)              0         \
_________________________________________________________________\
dense_1 (Dense)              (None, 1164)              8940684   \
_________________________________________________________________\
dropout_2 (Dropout)          (None, 1164)              0         \
_________________________________________________________________\
activation_6 (Activation)    (None, 1164)              0         \
_________________________________________________________________\
dense_2 (Dense)              (None, 100)               116500    \
_________________________________________________________________\
dropout_3 (Dropout)          (None, 100)               0         \
_________________________________________________________________\
activation_7 (Activation)    (None, 100)               0         \
_________________________________________________________________\
dense_3 (Dense)              (None, 50)                5050      \
_________________________________________________________________\
dropout_4 (Dropout)          (None, 50)                0         \
_________________________________________________________________\
activation_8 (Activation)    (None, 50)                0         \
_________________________________________________________________\
dense_4 (Dense)              (None, 10)                510       \
_________________________________________________________________\
dropout_5 (Dropout)          (None, 10)                0         \
_________________________________________________________________\
activation_9 (Activation)    (None, 10)                0         \
_________________________________________________________________\
dense_5 (Dense)              (None, 1)                 11        \
=================================================================\
Total params: 9,194,103\
Trainable params: 9,194,103\
Non-trainable params: 0\
_________________________________________________________________\
Identified training samples:  (398, 160, 320, 3) (398,)\
Train on 318 samples, validate on 80 samples\
Epoch 1/7\
W tensorflow/core/platform/cpu_feature_guard.cc:45] The TensorFlow library wasn't compiled to use SSE3 instructions, but these are available on your machine and could speed up CPU computations.\
…
6428/6428 [==============================] - 87s - loss: 0.0160 - val_loss: 0.0176\

\f1\b \cf2 ubuntu@ip-172-31-46-176
\f2\b0 \cf4 :
\f1\b \cf5 ~/code
\f2\b0 \cf4 $ \
\
\
\

\f1\b \cf2 ==>> Final model \'97 training data with only 2 Lapse
\f2\b0 \cf4 \

\f1\b \cf2 ubuntu@ip-172-31-46-176
\f2\b0 \cf4 :
\f1\b \cf5 ~/code
\f2\b0 \cf4 $ python model.py \
Using TensorFlow backend.\
\
_________________________________________________________________\
Layer (type)                 Output Shape              Param #   \
=================================================================\
cropping2d_1 (Cropping2D)    (None, 70, 220, 3)        0         \
_________________________________________________________________\
conv2d_1 (Conv2D)            (None, 35, 110, 24)       1824      \
_________________________________________________________________\
activation_1 (Activation)    (None, 35, 110, 24)       0         \
_________________________________________________________________\
max_pooling2d_1 (MaxPooling2 (None, 34, 109, 24)       0         \
_________________________________________________________________\
conv2d_2 (Conv2D)            (None, 17, 55, 36)        21636     \
_________________________________________________________________\
activation_2 (Activation)    (None, 17, 55, 36)        0         \
_________________________________________________________________\
max_pooling2d_2 (MaxPooling2 (None, 16, 54, 36)        0         \
_________________________________________________________________\
conv2d_3 (Conv2D)            (None, 8, 27, 48)         43248     \
_________________________________________________________________\
activation_3 (Activation)    (None, 8, 27, 48)         0         \
_________________________________________________________________\
max_pooling2d_3 (MaxPooling2 (None, 7, 26, 48)         0         \
_________________________________________________________________\
conv2d_4 (Conv2D)            (None, 7, 26, 64)         27712     \
_________________________________________________________________\
activation_4 (Activation)    (None, 7, 26, 64)         0         \
_________________________________________________________________\
max_pooling2d_4 (MaxPooling2 (None, 6, 25, 64)         0         \
_________________________________________________________________\
conv2d_5 (Conv2D)            (None, 6, 25, 64)         36928     \
_________________________________________________________________\
activation_5 (Activation)    (None, 6, 25, 64)         0         \
_________________________________________________________________\
max_pooling2d_5 (MaxPooling2 (None, 5, 24, 64)         0         \
_________________________________________________________________\
flatten_1 (Flatten)          (None, 7680)              0         \
_________________________________________________________________\
dropout_1 (Dropout)          (None, 7680)              0         \
_________________________________________________________________\
dense_1 (Dense)              (None, 1164)              8940684   \
_________________________________________________________________\
activation_6 (Activation)    (None, 1164)              0         \
_________________________________________________________________\
dense_2 (Dense)              (None, 100)               116500    \
_________________________________________________________________\
dropout_2 (Dropout)          (None, 100)               0         \
_________________________________________________________________\
activation_7 (Activation)    (None, 100)               0         \
_________________________________________________________________\
dense_3 (Dense)              (None, 50)                5050      \
_________________________________________________________________\
dropout_3 (Dropout)          (None, 50)                0         \
_________________________________________________________________\
activation_8 (Activation)    (None, 50)                0         \
_________________________________________________________________\
dense_4 (Dense)              (None, 10)                510       \
_________________________________________________________________\
dropout_4 (Dropout)          (None, 10)                0         \
_________________________________________________________________\
activation_9 (Activation)    (None, 10)                0         \
_________________________________________________________________\
dense_5 (Dense)              (None, 1)                 11        \
=================================================================\
Total params: 9,194,103\
Trainable params: 9,194,103\
Non-trainable params: 0\
_________________________________________________________________\
Identified training samples:  (9426, 160, 320, 3) (9426,)\
Train on 7540 samples, validate on 1886 samples\
Epoch 1/7\
W tensorflow/core/platform/cpu_feature_guard.cc:45] The TensorFlow library wasn't compiled to use SSE3 instructions, but these are available on your machine and could speed up CPU computations.\
…
\f1\b \cf5 ~/code
\f2\b0 \cf4 $ \
[1]+  Done                    python model.py\
\
\
\

\f1\b \cf2 ==>> Modified cropping \
    model.add(Cropping2D(cropping=((70, 20), (20, 20)), input_shape=(160, 320, 3)))\
	Also using 50% dropout for all connected layers\
ubuntu@ip-172-31-46-176
\f2\b0 \cf4 :
\f1\b \cf5 ~/code
\f2\b0 \cf4 $ python model.py \
Using TensorFlow backend.\
_________________________________________________________________\
Layer (type)                 Output Shape              Param #   \
=================================================================\
cropping2d_1 (Cropping2D)    (None, 70, 280, 3)        0         \
_________________________________________________________________\
conv2d_1 (Conv2D)            (None, 35, 140, 24)       1824      \
_________________________________________________________________\
activation_1 (Activation)    (None, 35, 140, 24)       0         \
_________________________________________________________________\
max_pooling2d_1 (MaxPooling2 (None, 34, 139, 24)       0         \
_________________________________________________________________\
conv2d_2 (Conv2D)            (None, 17, 70, 36)        21636     \
_________________________________________________________________\
activation_2 (Activation)    (None, 17, 70, 36)        0         \
_________________________________________________________________\
max_pooling2d_2 (MaxPooling2 (None, 16, 69, 36)        0         \
_________________________________________________________________\
conv2d_3 (Conv2D)            (None, 8, 35, 48)         43248     \
_________________________________________________________________\
activation_3 (Activation)    (None, 8, 35, 48)         0         \
_________________________________________________________________\
max_pooling2d_3 (MaxPooling2 (None, 7, 34, 48)         0         \
_________________________________________________________________\
conv2d_4 (Conv2D)            (None, 7, 34, 64)         27712     \
_________________________________________________________________\
activation_4 (Activation)    (None, 7, 34, 64)         0         \
_________________________________________________________________\
max_pooling2d_4 (MaxPooling2 (None, 6, 33, 64)         0         \
_________________________________________________________________\
conv2d_5 (Conv2D)            (None, 6, 33, 64)         36928     \
_________________________________________________________________\
activation_5 (Activation)    (None, 6, 33, 64)         0         \
_________________________________________________________________\
max_pooling2d_5 (MaxPooling2 (None, 5, 32, 64)         0         \
_________________________________________________________________\
flatten_1 (Flatten)          (None, 10240)             0         \
_________________________________________________________________\
dropout_1 (Dropout)          (None, 10240)             0         \
_________________________________________________________________\
dense_1 (Dense)              (None, 1164)              11920524  \
_________________________________________________________________\
activation_6 (Activation)    (None, 1164)              0         \
_________________________________________________________________\
dense_2 (Dense)              (None, 100)               116500    \
_________________________________________________________________\
dropout_2 (Dropout)          (None, 100)               0         \
_________________________________________________________________\
activation_7 (Activation)    (None, 100)               0         \
_________________________________________________________________\
dense_3 (Dense)              (None, 50)                5050      \
_________________________________________________________________\
dropout_3 (Dropout)          (None, 50)                0         \
_________________________________________________________________\
activation_8 (Activation)    (None, 50)                0         \
_________________________________________________________________\
dense_4 (Dense)              (None, 10)                510       \
_________________________________________________________________\
dropout_4 (Dropout)          (None, 10)                0         \
_________________________________________________________________\
activation_9 (Activation)    (None, 10)                0         \
_________________________________________________________________\
dense_5 (Dense)              (None, 1)                 11        \
=================================================================\
Total params: 12,173,943\
Trainable params: 12,173,943\
Non-trainable params: 0\
_________________________________________________________________\
Identified training samples:  (8709, 160, 320, 3) (8709,)\
Train on 6967 samples, validate on 1742 samples\
Epoch 1/7\
W tensorflow/core/platform/cpu_feature_guard.cc:45] The TensorFlow library wasn't compiled to use SSE3 instructions, but these are available on your machine and could speed up CPU computations.\
…
